app/src/main/ml/CNN.tflite (tflite, 151916 bytes, 10 tensors)

sequential_1/conv2d_3/Relu;sequential_1/conv2d_3/BiasAdd;sequential_1/conv2d_5/Conv2D;sequential_1/conv2d_3/Conv2D;sequential_1/conv2d_3/BiasAdd/ReadVariableOp f4 [32, 3, 3, 3]
0	0x39b98afd	0.00035389504
1	0xb9aad7d3	-0.00032585728
2	0x394661e2	0.00018919216
3	0xb996e100	-0.00028777868
4	0xb90503ad	-0.00012685238
5	0x3817e077	3.6210255e-05
6	0x38389c5d	4.4014643e-05
7	0x39a4f81c	0.00031465373
8	0xb99bc513	-0.00029710736
9	0xb9fc4d25	-0.00048122663
10	0xb9499bba	-0.00019226866
11	0x3965569f	0.0002187141
12	0xb9df38f9	-0.00042576322
13	0xb9741ad4	-0.00023279648
14	0xb9eef8d7	-0.00045580298
15	0x399b7064	0.0002964764
16	0x3a033a3e	0.0005005932
17	0x3a3b720d	0.0007150479
18	0x3980a524	0.00024537102
19	0xba1b457f	-0.00059231365
20	0xba1695bd	-0.00057443586
21	0x3a0c4318	0.0005350574
22	0xb90ab743	-0.00013228976
23	0xb9b2af9c	-0.00034081645
24	0x3a1eee6d	0.000606275
25	0xb9b66403	-0.0003478826
26	0x3a33a266	0.00068525074
27	0xb99bc167	-0.00029708
28	0x39134a74	0.00014046748
29	0x39c1788a	0.00036901637
30	0xb9d4b2dd	-0.00040569055
31	0xb9eb7456	-0.0004490937
32	0x3a21298a	0.00061478524
33	0x3974066f	0.0002327205
34	0xb6ca05d9	-6.02075e-06
35	0x388ac7c7	6.617564e-05
36	0x3a09d13d	0.0005257314
37	0x39de1c88	0.00042364397
38	0x394c7b57	0.00019500904
39	0xb83ce9dc	-4.504049e-05
40	0xb99deed3	-0.0003012331
41	0x39e5617a	0.0004375091
42	0xb9a79d99	-0.00031970142
43	0xb9944231	-0.00028278076
44	0x37bdfa8c	2.2647226e-05
45	0x3913f91d	0.00014111814
46	0x393b326f	0.00017852498
47	0x393f2996	0.00018230671
48	0x399c8d0d	0.0002985973
49	0xb9a99986	-0.00032348576
50	0x38dbf220	0.00010487833
51	0xb722e84f	-9.710041e-06
52	0xb9b4758d	-0.00034419858
53	0xb924e9c8	-0.00015727349
54	0xb9e4dcd0	-0.00043652067
55	0xba17877c	-0.00057803816
56	0x395899de	0.00020656685
57	0xb8baadfe	-8.90158e-05
58	0x39810bdd	0.00024613636
59	0x391a6f27	0.00014727992
60	0xb9190991	-0.00014594781
61	0xb853299c	-5.0345072e-05
62	0x3946eeb0	0.0001897167
63	0xba08879e	-0.0005208197
64	0xb9b11387	-0.0003377462
65	0xb8e73d5a	-0.00011026366
66	0x39cbb64c	0.00038855
67	0xb9b967b0	-0.00035363203
68	0xb9ce4663	-0.00039343824
69	0x39e17ea8	0.0004300971
70	0xb94f7fe8	-0.00019788707
71	0xb9c23821	-0.00037044383
72	0xb9feae0f	-0.0004857634
73	0x39d8ce88	0.00041352608
74	0xb9bc201f	-0.00035882086
75	0x39c7ce9b	0.0003811017
76	0x3980d4d0	0.0002457262
77	0xb92deabc	-0.00016586011
78	0x3a4c9f75	0.00078057434
79	0x3925199f	0.00015745171
80	0x3a635ebb	0.0008673479
81	0xb9d4e980	-0.00040609762
82	0xb8b74c92	-8.740382e-05
83	0x39460457	0.00018884368
84	0xb9898b8c	-0.00026234647
85	0xb9b7f9c2	-0.00035090564
86	0x396d0c23	0.00022606603
87	0x39a8f56b	0.00032226308
88	0x38bff9d9	9.1541275e-05
89	0x39f5e843	0.0004690309
90	0xb9ec4291	-0.00045063024
91	0x3a0a4811	0.0005275021
92	0x395923f7	0.0002070813
93	0xb9a44422	-0.0003133128
94	0x39111722	0.00013836895
95	0x39592731	0.00020709333
96	0xb89ac94f	-7.380789e-05
97	0xb98a70f9	-0.00026405582
98	0xb9dd21a9	-0.00042177484
99	0x3929468a	0.00016143374
100	0x3a0b9ae7	0.00053255114
101	0xb9be0269	-0.0003624142
102	0xba1ed267	-0.0006058574
103	0x38c90bf1	9.586651e-05
104	0xba0254db	-0.0004971751
105	0xb98555f9	-0.0002543179
106	0x3a16d7d3	0.0005754206
107	0x395fc190	0.00021339045
108	0x3a15bf25	0.00057123817
109	0xba16ecae	-0.0005757314
110	0xb9343bfd	-0.00017188485
111	0x3a2764ce	0.00063855655
112	0x39a984f9	0.00032333264
113	0x3a017a0f	0.00049391476
114	0x39f05eb6	0.00045846932
115	0x3a135614	0.00056204316
116	0x3a323091	0.0006797398
117	0x39f9ba68	0.00047631864
118	0xb8a2420f	-7.737066e-05
119	0x3a3503ca	0.00069051667
120	0x3983ce2a	0.0002513987
121	0x3938f9a8	0.00017640612
122	0xb88db074	-6.756271e-05
123	0x3a881ebe	0.0010385138
124	0x3a15bbb5	0.00057118695
125	0x3a50df33	0.00079678296
126	0xb91a0e98	-0.00014692021
127	0xba29b3b7	-0.0006473618
128	0x3a0af46c	0.0005300704
129	0x3a3f80df	0.0007305275
130	0xb93cd616	-0.0001800883
131	0x38b03a0a	8.4031446e-05
132	0x39155ad4	0.00014243583
133	0xb9b3dab3	-0.00034304484
134	0xb93a6198	-0.00017774699
135	0xb98d6f20	-0.0002697641
136	0xb9bc7195	-0.0003594278
137	0xb859b751	-5.190756e-05
138	0xb79e6ee7	-1.888671e-05
139	0xba01ad09	-0.0004946744
140	0x3a0333f9	0.0005004998
141	0xb9a946dc	-0.00032286986
142	0x389a52c1	7.358706e-05
143	0x388d1b0f	6.728444e-05
144	0x39c8a690	0.0003827107
145	0x39adba67	0.00033136012
146	0xb9ddc14a	-0.00042296416
147	0x39fd7aeb	0.000483475
148	0xb9a6572f	-0.00031726944
149	0xb9c46c24	-0.00037464604
150	0xb981805f	-0.0002470044
151	0x39095dea	0.00013100324
152	0x39d477b5	0.0004052498
153	0x3a238683	0.00062380004
154	0xb98a7413	-0.00026407893
155	0xb97ac2e8	-0.00023914466
156	0xb70dc58f	-8.450253e-06
157	0xb9edac31	-0.00045332455
158	0x3993a191	0.000281584
159	0x3903b976	0.00012562223
160	0xb86ff9d4	-5.721471e-05
161	0xb99e0ba0	-0.0003014477
162	0x39a0633a	0.00030591508
163	0x3a25c2ef	0.0006323298
164	0xb90945c1	-0.00013091323
165	0xb8cf6fe9	-9.891374e-05
166	0x39a05785	0.00030582785
167	0x3a50424d	0.000794445
168	0x355acf1d	8.151272e-07
169	0x39fd9304	0.00048365456
170	0x3a2207e2	0.0006180984
171	0xb6112f1e	-2.163411e-06
172	0x3a5ab10f	0.0008342424
173	0x39d3c606	0.00040392595
174	0x393782f9	0.00017501031
175	0x3a10930f	0.00055150775
176	0x3992ce65	0.00028001066
177	0xb9492b94	-0.00019185088
178	0x39eda225	0.0004532497
179	0x39440390	0.00018693344
180	0x3a392363	0.0007062463
181	0x3a19a51d	0.00058610906
182	0x39e220d8	0.0004313055
183	0x3a12d6ad	0.0005601447
184	0x38864815	6.403044e-05
185	0x3a3f6294	0.0007300761
186	0xb90ae33e	-0.0001324536
187	0x397f4ce8	0.00024347345
188	0xb9e35656	-0.0004336114
189	0xb915040f	-0.00014211259
190	0x399545c9	0.0002847149
191	0x39f5ae73	0.00046860016
192	0x388e0d1f	6.773532e-05
193	0x398bcee8	0.00026666303
194	0xba068a15	-0.000513227
195	0x3825904e	3.947346e-05
196	0x39fd12cb	0.00048269922
197	0xb8d4739a	-0.0001013048
198	0xb9cea909	-0.00039417323
199	0x3900e211	0.00012291248
200	0x390a12a0	0.00013167644
201	0xb9b8d389	-0.0003525282
202	0x38949de0	7.0865965e-05
203	0xb7d05999	-2.4837254e-05
204	0xba3c6960	-0.0007187333
205	0x39b0c62e	0.0003371699
206	0xb94e047c	-0.00019647361
207	0x396bfb68	0.00022505003
208	0x39e2a5c9	0.000432296
209	0x39854988	0.00025422522
210	0x39ef6ef3	0.00045668296
211	0x378eb98a	1.7014117e-05
212	0xb99a50a2	-0.00029433245
213	0xba3c8199	-0.00071909424
214	0x38406ac5	4.5875804e-05
215	0xba3c13b1	-0.0007174565
216	0x3997e2d4	0.00028969964
217	0xba27bcd4	-0.0006398682
218	0xb9242695	-0.00015654632
219	0xb8f0ac21	-0.00011476153
220	0xb980570e	-0.00024478923
221	0x3a0cefbc	0.00053762994
222	0x3a380b8b	0.0007020763
223	0xb91e114a	-0.00015074495
224	0x39d42068	0.00040459936
225	0x39c54af4	0.00037630612
226	0x392f9648	0.00016745285
227	0x398c7bff	0.00026795265
228	0x39e29dfd	0.0004322379
229	0x38965273	7.167915e-05
230	0x39bce357	0.00036027536
231	0x3a06cabe	0.0005141905
232	0x39b448c2	0.00034386484
233	0x3a14373b	0.0005653982
234	0x398c742b	0.00026789433
235	0xb88df316	-6.768682e-05
236	0xb9244c2e	-0.00015668638
237	0x39d696dc	0.0004092966
238	0xb9f4adee	-0.00046668894
239	0x3a25cb53	0.0006324548
240	0xb9ac8469	-0.0003290505
241	0xb9a4df33	-0.00031446814
242	0xb8d834fa	-0.0001030955
243	0x3a430357	0.00074391573
244	0x3a1a9d55	0.0005898078
245	0x3a2b8b1e	0.00065438624
246	0xb91c8aef	-0.00014929076
247	0x391df4d5	0.00015063894
248	0x394f89de	0.00019792418
249	0x3a2f6b16	0.0006691677
250	0x3a131efc	0.0005612222
251	0x3a222145	0.0006184767
252	0x3a21bb81	0.0006169603
253	0xb922d083	-0.000155272
254	0x3a272df5	0.00063773926
255	0x39cf7c03	0.00039574513

sequential_1/conv2d_3/BiasAdd/ReadVariableOp f4 [32]
0	0x3d432fa0	0.04765284
1	0x3d3258b7	0.043541636
2	0x3cf32920	0.029682696
3	0x3ce41fbf	0.027847169
4	0xbd946c2f	-0.07247197
5	0x3de8283c	0.11335799
6	0xbd68d238	-0.056841105
7	0x3c8f09e0	0.017460763
8	0xbc487a8a	-0.012236247
9	0xbcb5f87e	-0.022213217
10	0xbc8a698d	-0.016896034
11	0xbd31841f	-0.04333889
12	0xbcaeef8f	-0.021354465
13	0x3d1b85df	0.037969466
14	0x3d50f5bc	0.0510156
15	0xbdd957fd	-0.106124856
16	0x3c4b783a	0.012418801
17	0x3d3115e1	0.043233756
18	0x3c96b9f6	0.01839922
19	0x3c9ac9a6	0.018894982
20	0x3c554019	0.01301577
21	0xbce0609c	-0.027389817
22	0xbc6e255b	-0.014535273
23	0x3c7d8989	0.0154746855
24	0x3d063c49	0.032772336
25	0x3c0ea099	0.008705282
26	0xbd18a0f5	-0.037262876
27	0xbd87d437	-0.06632274
28	0xbd15e1aa	-0.036592163
29	0x3ca06adf	0.01958221
30	0xbda0176f	-0.078169696
31	0x3d68b61f	0.05681431

sequential_1/conv2d_4/BiasAdd/ReadVariableOp f4 [32]
0	0x3cd0e437	0.025499446
1	0xbbc9e5c2	-0.0061614225
2	0xbc0aef47	-0.0084799
3	0xbc565ccb	-0.013083647
4	0x3c86dec6	0.016463649
5	0xbc9fef00	-0.019523144
6	0x3d5775df	0.052602645
7	0xbd0eea5e	-0.03489148
8	0xbc256b32	-0.010096358
9	0xbc3dcf98	-0.011585139
10	0xbc0a4c42	-0.008441033
11	0xbd83b287	-0.06430536
12	0xba95d944	-0.0011432548
13	0xbc8f1d0d	-0.017469907
14	0x3dfc509a	0.12320061
15	0x3d553680	0.05205393
16	0x3c551271	0.013004885
17	0x3b07e450	0.002073545
18	0xbcf1e1ed	-0.029526675
19	0x3d950db9	0.07278008
20	0xbc6c6950	-0.014429405
21	0x3b886036	0.00416186
22	0x3d182143	0.037141096
23	0x3cca44c7	0.024690999
24	0xbbd24c2f	-0.006417773
25	0x3cd9418e	0.026520517
26	0xbc0c49e0	-0.008562535
27	0x3ce5f27d	0.028069729
28	0x3cb77382	0.022393946
29	0xbcebfa49	-0.028805869
30	0xbb6bc986	-0.0035978272
31	0xbc20e17b	-0.009819384

sequential_1/conv2d_5/BiasAdd/ReadVariableOp f4 [32]
0	0xbc9a0952	-0.018803272
1	0xbbc96e11	-0.006147154
2	0x3c43f213	0.01195957
3	0x3d189aef	0.03725713
4	0xbb9dfd67	-0.0048214677
5	0xbb392b3d	-0.0028254532
6	0x3cffecbc	0.031240813
7	0xba2bc907	-0.0006553088
8	0x3ae27a9d	0.0017278973
9	0xbc534ddb	-0.01289698
10	0xbb824dea	-0.0039765732
11	0xbc404cee	-0.0117370915
12	0x3c8e00c4	0.01733435
13	0xbc3fe806	-0.011713034
14	0x3d06c56d	0.032903124
15	0xb7bf341b	-2.2793238e-05
16	0xbc01e1b3	-0.007927346
17	0x3ca70f20	0.020392954
18	0xbc229b4f	-0.009924724
19	0x3c730320	0.014832288
20	0x3c8ca02a	0.017166216
21	0xbd638901	-0.05555058
22	0x3c9485ad	0.018130148
23	0xbbde2abd	-0.006779997
24	0x3c448678	0.0119949505
25	0x3cc4b2e2	0.02401108
26	0xbcf82f78	-0.030296072
27	0xbb04a8b0	-0.0020242147
28	0xbbc4ebe4	-0.0060095657
29	0x00000000	0.0
30	0xbba7a33d	-0.005115895
31	0xbca7c475	-0.02047942

sequential_1/conv2d_4/Conv2D f4 [32, 3, 3, 32]
0	0x3d9df47b	0.077126466
1	0xbd5f77d9	-0.054557655
2	0x3db7a192	0.08966364
3	0x3d86cfe1	0.065826185
4	0xbda91934	-0.0825676
5	0xbd80e918	-0.06294459
6	0x3db79251	0.089634545
7	0x3de533b5	0.11191503
8	0xbdb545fd	-0.0885124
9	0x3d6e2cf0	0.058148324
10	0xbd1a89b2	-0.037728973
11	0x3ce67dde	0.02813619
12	0xbdb9db9f	-0.090750925
13	0x3e7f79d4	0.24948817
14	0xbd2f8e7b	-0.04286049
15	0xbd16e8e6	-0.036843203
16	0xbc25a82f	-0.010110899
17	0x3dedbd03	0.11608317
18	0x3c97f94b	0.01855149
19	0x3d2f566b	0.042807024
20	0x3e011380	0.12605095
21	0xbcc4dac4	-0.024030097
22	0x3bc9ad49	0.0061546904
23	0x3d9fa214	0.07794586
24	0x3d968edf	0.07351469
25	0xbc5e2a96	-0.013559958
26	0xbd51973b	-0.051169615
27	0xbdb0af17	-0.08627146
28	0x3d3f7770	0.046744764
29	0x3c9abdde	0.018889364
30	0x3d929bf6	0.071586534
31	0x3c0fde96	0.008781096
32	0xbdf841f1	-0.12121952
33	0x3d721a89	0.059107337
34	0x3cea9097	0.028633399
35	0x3e538201	0.20655061
36	0x3cd6d9ff	0.026226996
37	0xbe162478	-0.14662349
38	0x3dff201b	0.124572955
39	0x3e35cb66	0.17753372
40	0x3dc676bd	0.09690616
41	0x3db8d9bd	0.09025905
42	0x3e21c7b8	0.15798843
43	0xbd98b97e	-0.07457255
44	0x3ceff639	0.029292213
45	0x3d9af988	0.075671256
46	0xbe04eaa2	-0.1298013
47	0xbc140efc	-0.009036776
48	0x3e2ef029	0.17083801
49	0x3d0f717b	0.035020333
50	0x3d827664	0.063702375
51	0xbd28ece6	-0.04124155
52	0x3dc17f68	0.09448129
53	0xbd7d4710	-0.06183535
54	0x3d9d3fee	0.07678209
55	0x3c8917d5	0.016734997
56	0x3bb4d1d9	0.00551818
57	0xbc8da77d	-0.017291779
58	0x3d84eb9f	0.06490254
59	0xbca54ef9	-0.020179259
60	0x3ccf383e	0.025295373
61	0xbda9fe97	-0.08300512
62	0xbd00af94	-0.031417444
63	0xbc3a5c61	-0.011374564
64	0xbd8cc138	-0.06872791
65	0xbb50bf54	-0.0031852322
66	0xbd737575	-0.059438188
67	0x3e1190df	0.1421542
68	0xbd0fcb10	-0.035105765
69	0xbe783e61	-0.24242546
70	0x3c31b74c	0.010846924
71	0x3e50d898	0.20395124
72	0xbc84bc53	-0.016203081
73	0xbc9c7077	-0.019096596
74	0x3e13d934	0.14438325
75	0xbdade828	-0.08491546
76	0xbd59fd65	-0.05322017
77	0x3e043b5c	0.12913269
78	0xbe17d0b7	-0.14825712
79	0x3dc0b684	0.09409812
80	0x3e234478	0.15944088
81	0x3e263243	0.16230111
82	0x3e058c99	0.13041915
83	0x3de1c64a	0.11024149
84	0x3e0f01ba	0.13965502
85	0xbceca510	-0.028887302
86	0x3dfc0999	0.12306518
87	0x3c3da4f3	0.0115749715
88	0xbe02f8f3	-0.12790279
89	0xbd2090f0	-0.039200723
90	0x3ddf74f5	0.1091098
91	0xbd98462c	-0.07435259
92	0x3d3d05aa	0.04614798
93	0xbd4add66	-0.04952755
94	0x3c0de273	0.008659947
95	0xbdd4de20	-0.103939295
96	0xbd99ffce	-0.07519494
97	0xbe2d403e	-0.16919038
98	0xbddc0e78	-0.10744947
99	0x3dcbe09b	0.099549495
100	0xbd9f7cea	-0.07787497
101	0xbe5a93c6	-0.21345434
102	0x3c2c497b	0.010515566
103	0x3e2cc1d6	0.16870818
104	0x3d6c2619	0.05765352
105	0x3cd23af4	0.025662877
106	0x3d4ea9f0	0.050455034
107	0x3d16916c	0.03675978
108	0xbda8f994	-0.08250728
109	0x3e15f81e	0.1464543
110	0xbe52d0e2	-0.20587495
111	0x3cfb5091	0.030678065
112	0x3c8b93aa	0.017038185
113	0x3d87fd38	0.066400945
114	0x3e15e891	0.14639498
115	0xbd9e7b00	-0.07738304
116	0x3defd399	0.11710281
117	0x3cb6cc6f	0.022314278
118	0x3e104f49	0.14092745
119	0x3dde7d42	0.10863735
120	0x3d071add	0.032984603
121	0xbd870cb7	-0.06594222
122	0xbd2eb281	-0.042650703
123	0xbdc4e831	-0.096145995
124	0xbd61f3db	-0.0551642
125	0xbdacbf12	-0.08434881
126	0x3d66b090	0.056320727
127	0x3d0b3fa1	0.033996228
128	0xbe54e26d	-0.207895
129	0xbd3306af	-0.043707546
130	0xbe246d3d	-0.16057296
131	0x3db6142a	0.08890565
132	0x3d0dfa1d	0.034662355
133	0xbdb701a2	-0.08935858
134	0x3de112c7	0.109899096
135	0x3dd8125a	0.10550375
136	0xbda59587	-0.08085161
137	0x3db23fe7	0.08703595
138	0x3dd0be84	0.10192588
139	0xbcd8cae6	-0.026463937
140	0xbd1f69a5	-0.03891911
141	0x3d848b22	0.0647185
142	0xbe1f4ec7	-0.15557395
143	0xbd60ae97	-0.054854
144	0x3d79f052	0.061020203
145	0x3da90b12	0.082540646
146	0x3e010b26	0.12601909
147	0x3e288b53	0.16459398
148	0x3dc2961d	0.09501288
149	0xbbf86e0d	-0.0075814785
150	0x3d7ce21c	0.061739072
151	0x3e00abad	0.12565489
152	0xbe137bdc	-0.14402717
153	0xbe0a2909	-0.13492216
154	0xbc28fe4e	-0.010314537
155	0x3d6c940d	0.05775838
156	0x3d9e05cc	0.077159494
157	0x3d6e856e	0.058232717
158	0xbd23be2d	-0.039976288
159	0xbd7b0635	-0.061285216
160	0xbdc5539e	-0.09635089
161	0xbbde0c70	-0.006776385
162	0x3d3ad8f3	0.045617055
163	0x3d5fae3f	0.054609533
164	0x3c80d007	0.015724195
165	0xbe4d8a14	-0.20072204
166	0xbbdeb69e	-0.006796672
167	0x3decaaef	0.115560405
168	0xbe187dbe	-0.14891717
169	0x3d7e533f	0.06209111
170	0xbc938d3b	-0.01801168
171	0xbc1f11b0	-0.009708807
172	0xbd33ec73	-0.043926667
173	0x3d8fba45	0.0701795
174	0xbda98a21	-0.08278299
175	0xbc61c845	-0.013780658
176	0x3e3a6f17	0.1820644
177	0x3e0f3087	0.13983355
178	0x3e4d2888	0.20034993
179	0xbcaaf9fc	-0.020871155
180	0x3ce741a8	0.02822955
181	0xbe0c65f2	-0.13710764
182	0x3da4ed04	0.0805302
183	0x3d8153c7	0.063148074
184	0xbd5be468	-0.053684622
185	0xbe3a1b9f	-0.18174599
186	0x3d2264af	0.0396468
187	0xbdb444e9	-0.08802206
188	0x3d22798b	0.039666694
189	0x3d90eae8	0.07076055
190	0xbd09eea6	-0.03367486
191	0xbdf4a04d	-0.119446374
192	0xbdaf8d37	-0.085718565
193	0xbe02883c	-0.12747282
194	0xbe0b1638	-0.13582695
195	0x3d3fe169	0.046845827
196	0xbd1a6dcc	-0.037702367
197	0xbe0cfaf0	-0.137676
198	0x3b2ce900	0.0026383996
199	0x3d9ce87e	0.07661532
200	0xbe08a5db	-0.13344519
201	0x3c6be871	0.01439868
202	0x3d5197c3	0.051170122
203	0xbdce06bd	-0.10059879
204	0xbc627b09	-0.013823279
205	0x3c69f8d4	0.014280517
206	0xbc3dc88c	-0.011583459
207	0x3d17412b	0.036927383
208	0x3d465f14	0.048430517
209	0xbb7bc5c0	-0.0038417429
210	0x3d0e761c	0.034780607
211	0x3df7a9b8	0.12092918
212	0xbcfdebaf	-0.030996172
213	0xbdab691e	-0.08369659
214	0x3db41565	0.08793143
215	0x3e1d1620	0.15340471
216	0xbd7258c3	-0.05916668
217	0xbdf545ad	-0.1197618
218	0x3ce63eb4	0.028106071
219	0xbdb490bc	-0.088166684
220	0x3d981189	0.074252196
221	0x3d120e83	0.03565837
222	0xbd50a2f6	-0.05093666
223	0xbe3b79c5	-0.1830817
224	0xbcc295be	-0.023753043
225	0xbe32b02a	-0.17450014
226	0x3c2defb5	0.010616233
227	0x3cf7ad51	0.03023401
228	0xbddac71c	-0.10682508
229	0xbe691ceb	-0.22764938
230	0xbd805d44	-0.06267789
231	0x3e1f0d39	0.15532388
232	0xbd43035e	-0.047610633
233	0xbd3a4bd1	-0.04548246
234	0x3de82ebf	0.11337041
235	0xbd29d275	-0.041460473
236	0xbdcc2029	-0.099670716
237	0x3e264f55	0.162412
238	0xbb208434	-0.0024492862
239	0x3d941c0c	0.07231912
240	0x3e292a4c	0.16520041
241	0x3e23a6b2	0.15981558
242	0x3e0a292d	0.1349227
243	0xbe017c79	-0.12645139
244	0xbd23a829	-0.039955292
245	0xbb81b20d	-0.003957993
246	0xbc43e0f7	-0.011955491
247	0x3e70a051	0.23498656
248	0x3d8d7237	0.069065504
249	0xbd8f9dea	-0.070125416
250	0xbd606f4a	-0.054793634
251	0x3b5877ed	0.0033030466
252	0x3dd2b929	0.10289223
253	0x3db4e273	0.08832254
254	0xbc90d897	-0.017681403
255	0xbd82ef51	-0.06393302

sequential_1/conv2d_5/Conv2D f4 [32, 3, 3, 32]
0	0x3df174f3	0.117898844
1	0xbd0ede7e	-0.034880154
2	0x3cb59871	0.022167416
3	0x3daf0add	0.08546994
4	0xbdaba296	-0.0838062
5	0x3e0230d1	0.12713934
6	0x3d3d2d72	0.04618592
7	0xbd65301d	-0.055954088
8	0x3ccb6fc2	0.024833564
9	0x3d306592	0.043065615
10	0xbcb2c8f6	-0.021824341
11	0x3db11388	0.086463034
12	0x3de5ae53	0.1121489
13	0x3df0f8b7	0.117661886
14	0x3df05a7e	0.1173601
15	0xbdc814d8	-0.09769601
16	0x3dcea21f	0.10089516
17	0xbc833241	-0.016015174
18	0x3cdff695	0.02733926
19	0xbe482e8a	-0.19549003
20	0xbc58dc58	-0.013236128
21	0xbdb30b9e	-0.0874245
22	0xbd46baa0	-0.048517823
23	0x3b564c7a	0.0032699392
24	0x3d0bd3c8	0.034137517
25	0x3cb5c1c8	0.022187129
26	0xbd5f25ce	-0.054479413
27	0x3dc6ffc9	0.09716756
28	0x3e451df9	0.19249715
29	0x3d9bacb1	0.07601298
30	0xbd6d0278	-0.057863683
31	0xbdae761b	-0.085186206
32	0x3ce4d53e	0.027933713
33	0xbcbc3f4c	-0.022979401
34	0x3d77c175	0.06048723
35	0x3c2b1bda	0.010443652
36	0xbe1ca671	-0.15297867
37	0xbd934a9f	-0.07191967
38	0x3d5468b4	0.051857665
39	0xbd8e32a4	-0.06943253
40	0xbca62206	-0.020279896
41	0xbccdbbe7	-0.025114013
42	0xbcf6fce6	-0.030149888
43	0x3ca9d8f5	0.020733336
44	0x3e38bb01	0.18040086
45	0x3dcb33dd	0.099220015
46	0x3d8fe71e	0.07026504
47	0x3d035c53	0.03207047
48	0x3d1b0381	0.03784514
49	0x3c720d2e	0.01477365
50	0xbd02fb2b	-0.031977814
51	0xbce4bdc0	-0.027922511
52	0x3d5b71cd	0.053575326
53	0x3cf05cab	0.029341063
54	0xbaf9a80d	-0.0019047275
55	0xbd0ff789	-0.035148177
56	0xbdfe50a2	-0.12417723
57	0x3d56dacf	0.052454766
58	0x3d099f74	0.033599332
59	0x3de8e8e2	0.11372544
60	0x3dc067ad	0.093947746
61	0xbd9a9ca5	-0.07549409
62	0xbd76517a	-0.060136296
63	0x3e061580	0.13094139
64	0x3e4823c4	0.19544894
65	0x3be3736b	0.006941249
66	0x3d980e15	0.07424561
67	0xbd8077c7	-0.06272846
68	0x3d85c412	0.06531538
69	0xbac03632	-0.0014664589
70	0xbe3bfc29	-0.1835791
71	0xbda08feb	-0.0783995
72	0xbc81fa15	-0.015866319
73	0x3d2e9a3b	0.042627554
74	0x3e37b223	0.17939048
75	0xbd9d6e2e	-0.07687031
76	0x3c05497a	0.008135194
77	0xbbbb6119	-0.005718362
78	0x3b965605	0.004587891
79	0x3dc9a873	0.09846582
80	0x3e35e2a8	0.17762244
81	0x3e17b635	0.148156
82	0xbe022bbd	-0.12711997
83	0x3b8ea4b6	0.004353131
84	0xbd8c2965	-0.06843833
85	0x3da36f7c	0.07980248
86	0x3bc27689	0.0059345406
87	0x3e1422e3	0.14466433
88	0xbd05b2c2	-0.03264118
89	0xbcc4afa3	-0.024009531
90	0xbcbee83e	-0.023304101
91	0xb8b43c36	-8.594284e-05
92	0x3e3d9189	0.18512549
93	0xbd15fcb1	-0.03661794
94	0xbdc9283d	-0.09822128
95	0xbdbdd675	-0.0926942
96	0x3e19ff67	0.15038835
97	0xbde39baf	-0.11113679
98	0x3c97aaa5	0.018513987
99	0x3c61c49d	0.013779786
100	0xbdbb6669	-0.091503926
101	0xbbca901f	-0.0061817314
102	0x3ca12af6	0.019673806
103	0xbd00f8b4	-0.03148718
104	0xbdecdc75	-0.11565486
105	0x3d4f5a1f	0.050623056
106	0x3ced1828	0.028942183
107	0x3e04b6bb	0.12960331
108	0xbd8d0761	-0.06886173
109	0x3d3dd34f	0.046344098
110	0x3df6762f	0.120342605
111	0x3d954c3c	0.07289931
112	0x3dbe1b0b	0.09282502
113	0x3d296582	0.04135657
114	0xbcb4fa36	-0.022091966
115	0x3e30cd55	0.17265828
116	0x3dede538	0.11615986
117	0xbd915299	-0.070958324
118	0xbe1c109e	-0.15240714
119	0x3dcdab0a	0.10042389
120	0xbd371f72	-0.044707723
121	0x3d8c21ab	0.06842359
122	0xbb83066d	-0.0039985687
123	0xbd408a2c	-0.04700677
124	0x3e2a5dc8	0.16637337
125	0xbcb708a7	-0.022342993
126	0xbcf80e68	-0.030280307
127	0xbd58f0e1	-0.052964095
128	0xbc146986	-0.009058362
129	0xbde37fd2	-0.11108364
130	0x3de13380	0.10996151
131	0x3c9f716f	0.019463269
132	0x3c86c8c0	0.016453147
133	0xbd69355e	-0.05693566
134	0x3e0c52e4	0.13703495
135	0xbdc4fb73	-0.09618273
136	0xbd4e346a	-0.050342955
137	0xbd47bec3	-0.04876591
138	0x3e182148	0.14856446
139	0x3db8e55a	0.0902812
140	0xbbd7c6e8	-0.006584991
141	0xbd1b9ba0	-0.037990212
142	0xbd0d5108	-0.034501106
143	0x3e7ecb20	0.24882174
144	0xbc6c6ec0	-0.014430702
145	0x3deb8930	0.11500776
146	0xbd95e3c5	-0.07318834
147	0xbd48deaf	-0.049040493
148	0x3be7188c	0.0070524868
149	0x3ccda685	0.025103817
150	0xbd053258	-0.032518715
151	0x3d5f2340	0.054476976
152	0xbbeca716	-0.0072220666
153	0x3dda2ad0	0.10652697
154	0x3cabf390	0.020990163
155	0x3d093a6b	0.033502977
156	0x3e2b06ba	0.16701785
157	0x3dad124a	0.08450754
158	0x3cf3732b	0.029718002
159	0x3dfaabe8	0.1223982
160	0x3e172410	0.1475985
161	0xbcbc7c55	-0.023008505
162	0xbc828001	-0.015930178
163	0x3dbb2cb7	0.09139388
164	0x3deb6945	0.11494688
165	0x3d8ddcd7	0.069268875
166	0x3d2ce015	0.04220589
167	0xbd9edeaa	-0.077573135
168	0xbd82a923	-0.063799165
169	0xbdf1f6c6	-0.118146464
170	0x3ca2683f	0.019825099
171	0xbc48084c	-0.012209009
172	0x3dc73c40	0.09728289
173	0xbb2a314c	-0.0025969325
174	0x3ba9d4b7	0.0051828283
175	0x3dc6e3bc	0.09711406
176	0x3c467d5a	0.012114847
177	0x3dfe69f7	0.12422555
178	0x3cd13374	0.02553723
179	0x3dd8e8d6	0.10591285
180	0xbda3827a	-0.07983871
181	0x3c894fa6	0.016761612
182	0xbd77dc8f	-0.060513075
183	0x3d5abbac	0.053401634
184	0x3d8ea226	0.06964521
185	0xbd7fe6b3	-0.06247587
186	0xbc692928	-0.014231004
187	0x3cf4cdda	0.029883314
188	0x3c1f3ced	0.009719116
189	0x3da094a2	0.078408495
190	0xbdd1735d	-0.10227082
191	0x3ce0e2fb	0.027451983
192	0x3b27340d	0.0025513202
193	0xbd8534cd	-0.065042116
194	0xbc356ea9	-0.011073747
195	0x3bca5409	0.0061745686
196	0x3d500413	0.050785135
197	0x3da765e9	0.08173735
198	0x3e0d6fcc	0.13812178
199	0x3de2c8d0	0.11073458
200	0x3dbb064d	0.09132061
201	0x3db666be	0.08906315
202	0xbbc8ca30	-0.0061276183
203	0x3e3127ac	0.1730029
204	0x3e067514	0.131306
205	0xbd093c88	-0.033504993
206	0x3cc1c27b	0.023652306
207	0xbe0e0352	-0.13868454
208	0xbd9add02	-0.07561685
209	0xbd471942	-0.048608072
210	0x3bf74b7f	0.0075468416
211	0xbd1345ff	-0.035955425
212	0xbd42a2b9	-0.047518466
213	0x3d86fc2b	0.06591066
214	0xbe30fd72	-0.17284182
215	0xbbfa1c22	-0.007632748
216	0x3d4ba955	0.049722034
217	0xbdbbd46f	-0.09171378
218	0x3d95e929	0.073198624
219	0xbd06bab4	-0.032892898
220	0x3e1ba5b2	0.15199926
221	0x3cac28a9	0.021015482
222	0x3c95d049	0.018287795
223	0x3e07e584	0.13271147
224	0xbd1e2134	-0.038605884
225	0xbd1bfdbd	-0.03808378
226	0x3dc3bcf8	0.09557527
227	0xbd3770ab	-0.044785183
228	0x3de44946	0.11146788
229	0xbd590dc6	-0.05299165
230	0x3da9c67f	0.08289813
231	0xbc06d543	-0.0082295565
232	0x3d0104f8	0.03149888
233	0xbccf4002	-0.025299076
234	0xbd0b2959	-0.03397498
235	0x3d026122	0.031830914
236	0x3cb59f98	0.022170827
237	0x3e060c4b	0.13090627
238	0x3d89e640	0.0673337
239	0xbdb26b3d	-0.0871186
240	0x3ddddbe3	0.10832956
241	0x3d533fc1	0.051574472
242	0x3cd4add3	0.025961792
243	0xbd43089d	-0.047615636
244	0x3d04adb2	0.03239221
245	0x3e0106d5	0.12600262
246	0xbdbc35ce	-0.0918995
247	0x3e3880f9	0.18017949
248	0x3ba07839	0.004897144
249	0xbd34dbbe	-0.044154875
250	0x3bb3cb08	0.0054868497
251	0x3d03bfe9	0.03216544
252	0x3e2daa04	0.16959387
253	0xbcc864fd	-0.024462217
254	0xbdb5c5c7	-0.08875614
255	0x3e0a71e8	0.13520014

sequential_1/dense_3/BiasAdd/ReadVariableOp f4 [8]
0	0xbc1dbe2b	-0.009627859
1	0x3977147a	0.00023563384
2	0x3ca29f59	0.019851374
3	0x3c919e09	0.017775552
4	0xbcd6f359	-0.026239084
5	0x3b50936a	0.0031826147
6	0xbb90283c	-0.0043993276
7	0xbcaf9607	-0.021433843

sequential_1/dense_2/BiasAdd/ReadVariableOp f4 [128]
0	0xbbe8c9ee	-0.00710415
1	0xbc6ff636	-0.014646104
2	0x3d110d31	0.03541297
3	0xbc16d191	-0.009205238
4	0xbc663ed1	-0.014053063
5	0x3d347e7a	0.04406593
6	0xbc4778f5	-0.0121748345
7	0xbba99516	-0.005175243
8	0x3c77751d	0.015103606
9	0xbc62bbe4	-0.013838742
10	0xbc117340	-0.008877575
11	0x3cbcb390	0.02303484
12	0x3c58b1da	0.013225997
13	0xb974db95	-0.00023351454
14	0xba6e41a9	-0.00090887636
15	0x3852a08e	5.021743e-05
16	0x3cf3ace1	0.029745521
17	0x3c56507e	0.013080714
18	0xbcb255a3	-0.02176935
19	0x3ce6d6d2	0.028178606
20	0xbc42e580	-0.011895537
21	0xbb2434d3	-0.00250559
22	0xba84038a	-0.0010071856
23	0xbc838a79	-0.01605724
24	0x3d226368	0.039645582
25	0x3b55412a	0.0032540062
26	0xbc9c034a	-0.019044537
27	0xbc57cd86	-0.013171559
28	0x3b9b8ac4	0.0047467668
29	0xbcba1950	-0.022717148
30	0x3ca0bc92	0.019621167
31	0x00000000	0.0
32	0xbbecd72e	-0.0072278
33	0x3a5668da	0.0008179076
34	0xbba3c2f1	-0.004997604
35	0x3d3be88b	0.045876067
36	0xbc437491	-0.011929647
37	0x3ccf2389	0.0252855
38	0x3cfc45a3	0.030794924
39	0x3cc1595a	0.023602176
40	0xbca3685e	-0.019947227
41	0xbc882d2f	-0.016623108
42	0x3c6868e4	0.014185164
43	0x3c053d39	0.008132272
44	0x3d0e7419	0.034778688
45	0x3cba6eeb	0.022757968
46	0xbc4ba88e	-0.012430323
47	0x3c7d0241	0.015442432
48	0x3c8054ae	0.015665378
49	0xbc683206	-0.014172083
50	0x3cce617e	0.025192972
51	0x3b775325	0.0037738767
52	0xbc734aa8	-0.014849342
53	0xbc70569d	-0.014669088
54	0xbc9def35	-0.019279102
55	0x3c639007	0.013889319
56	0x3ba55357	0.0050453353
57	0x3c7ee505	0.015557532
58	0x00000000	0.0
59	0x3a875b93	0.0010326974
60	0xbbbd67c2	-0.005780191
61	0xbc436ed3	-0.011928278
62	0xbc8876bd	-0.016658181
63	0xbbd4f2ff	-0.006498694
64	0xbc224e36	-0.009906342
65	0x3ad538d8	0.0016267551
66	0xbc50c918	-0.012743257
67	0xbbf9287c	-0.007603703
68	0xbc84a8f1	-0.016193839
69	0x3cc693ba	0.024240363
70	0xbcbba451	-0.0229055
71	0x3d3998b9	0.045311663
72	0xbc48843b	-0.012238557
73	0x3befe940	0.0073215067
74	0x3c378b76	0.011202684
75	0xbca1ee20	-0.019766867
76	0x3d10905b	0.035293918
77	0x3cd3c778	0.02585195
78	0x3c66f6b5	0.0140969055
79	0xbbe7dae6	-0.0070756553
80	0xbc5281c4	-0.012848321
81	0x3c9fbebd	0.01950013
82	0x3cbf9c3e	0.023389932
83	0x3c300ee0	0.010745734
84	0xbb58d659	-0.0033086746
85	0xbca0e85d	-0.01964205
86	0x3c8f5ebc	0.017501228
87	0xba0fc2af	-0.0005484027
88	0xbd063ac9	-0.032770906
89	0x3c0dd6c6	0.008657163
90	0x3cdfde5c	0.027327709
91	0xbb2a5b67	-0.0025994421
92	0xbb99e099	-0.0046959636
93	0xbc54a3ac	-0.012978476
94	0x3d22df83	0.03976394
95	0x3d036c23	0.03208555
96	0x3c6a1015	0.014286061
97	0xbc2cde9f	-0.010551124
98	0xbc7805b7	-0.015138081
99	0xbc01c464	-0.007920358
100	0xbc6e9c62	-0.014563652
101	0xbcb43f2f	-0.022002785
102	0xbba8f7fa	-0.0051565142
103	0x3d74a564	0.05972804
104	0xbbe57e58	-0.0070035867
105	0x3c74a281	0.014931322
106	0xbbe08705	-0.006852033
107	0xbc89742b	-0.016779026
108	0xbb4e5ac6	-0.003148721
109	0x3b5d60c4	0.00337796
110	0xbbd1c7b4	-0.0064019803
111	0x3c5eeb68	0.01360593
112	0x3b99d112	0.0046941126
113	0x3bb34d6f	0.0054718773
114	0x3c3e4c66	0.0116148945
115	0xbc9397c6	-0.018016707
116	0xbbf85ea1	-0.00757964
117	0xbc21f673	-0.009885418
118	0xbc9dff06	-0.019286644
119	0x3cc9ea86	0.024647962
120	0x3b1106ad	0.0022129223
121	0x3c1920fe	0.009346245
122	0xbc0e2a03	-0.008677009
123	0xbc4fd06d	-0.01268397
124	0xbc33666e	-0.010949714
125	0xbc5a56f5	-0.013326396
126	0xbc86e608	-0.01646711
127	0xbb9f9fbb	-0.0048713363

sequential_1/dense_2/MatMul f4 [128, 128]
0	0x3d6ffffb	0.05859373
1	0x3bc8c6a5	0.006127196
2	0x3e02e44b	0.127824
3	0x3c248e86	0.010043746
4	0x3d93d78a	0.07218845
5	0xbdef6d5f	-0.11690783
6	0xbe1a9f84	-0.15099913
7	0xbdc68b3e	-0.09694527
8	0x3d3f0a43	0.046640646
9	0x3b4f2d48	0.0031612683
10	0x3dafb426	0.085792825
11	0xbdf87284	-0.12131217
12	0xbd0f24d0	-0.034947217
13	0xbdc4e5c4	-0.09614137
14	0x3c51d8c9	0.012808033
15	0x3db64c56	0.08901279
16	0x3de81a22	0.113331094
17	0xbba04f2f	-0.004892252
18	0x3cfbb038	0.030723676
19	0xbc95a338	-0.018266305
20	0xbe063d51	-0.13109328
21	0x3da4ec53	0.08052888
22	0x3c500e1d	0.012698677
23	0xbdbd2288	-0.09235102
24	0x3da971a9	0.08273632
25	0x3d5e1197	0.054215994
26	0xbde5f73b	-0.11228796
27	0x3c5a5993	0.01332702
28	0xbdb2e8d8	-0.08735818
29	0x3e1b06c5	0.15139301
30	0xbe0304db	-0.12794821
31	0x3ceaa610	0.028643638
32	0xbdd8deee	-0.105893955
33	0xbe004a21	-0.12528278
34	0xbe09e991	-0.13468005
35	0xbdb2ca68	-0.08730012
36	0xbdefa9aa	-0.11702283
37	0xbdf796f1	-0.12089337
38	0x3e070e15	0.13188966
39	0x3d8a7d7f	0.06762218
40	0x3c9efa0c	0.019406341
41	0x3df15e14	0.11785522
42	0xbdf51de0	-0.11968589
43	0xbdfdc3db	-0.12390872
44	0x3df33ed2	0.118772164
45	0x3cb45b22	0.022016112
46	0xbddc10d9	-0.10745401
47	0x3dbc3217	0.091892414
48	0x3cc6e080	0.024276972
49	0xbd432c5d	-0.04764973
50	0xbddaec5e	-0.10689615
51	0xbe0dfca4	-0.13865906
52	0xb8815ce8	-6.1685045e-05
53	0x3db9c1a5	0.09070138
54	0x3d015870	0.03157848
55	0x3d81b59c	0.06333467
56	0x3d7d6d37	0.061871734
57	0x3b9fac1b	0.0048728115
58	0xbd86c526	-0.06580572
59	0xbe104e8d	-0.14092465
60	0xbddf34aa	-0.10898717
61	0x3d916bac	0.07100615
62	0x3dcd169a	0.100140765
63	0xbded5026	-0.11587553
64	0x3de876fd	0.1135082
65	0xbdfd4063	-0.123657964
66	0xbd4f782e	-0.05065172
67	0x3d54cbaf	0.05195206
68	0xbe13459d	-0.14382024
69	0xbdc1557a	-0.094401315
70	0xbda420b5	-0.08014051
71	0x3d94d7ef	0.072677486
72	0x3c90bce6	0.017668199
73	0xbdc6e146	-0.09710936
74	0x3cc6db44	0.024274476
75	0xbda62e78	-0.08114332
76	0xbc385385	-0.011250381
77	0xbc75015c	-0.014953937
78	0xbd6dcd97	-0.058057394
79	0xbe1f88e2	-0.1557956
80	0xbe13de46	-0.1444026
81	0x3cf03bc7	0.029325379
82	0x3d6b02d8	0.05737576
83	0xbd4dd595	-0.050252516
84	0x3d297372	0.041369863
85	0x3dc53797	0.096297435
86	0xbde88e01	-0.1135521
87	0xbdba69c8	-0.091022074
88	0xbdd0fc06	-0.1020432
89	0x3e0497b0	0.12948489
90	0x3c97f85b	0.018551042
91	0xbcd01155	-0.02539889
92	0x3ceb1f70	0.028701514
93	0xbd275dc0	-0.04086089
94	0x3ddf039e	0.10889362
95	0xbde112b8	-0.109898984
96	0x3de24a56	0.11049335
97	0xbe20ac8b	-0.1569082
98	0x3df4b4bf	0.11948537
99	0xbe0ab020	-0.13543749
100	0xbd7bf385	-0.061511535
101	0xbe1072bc	-0.14106268
102	0x3d0a03ca	0.03369502
103	0xbe239de0	-0.15978193
104	0xbd9a4faa	-0.07534726
105	0x3dc1e0f2	0.09466733
106	0x3da287bf	0.07936048
107	0xbd2aaf1b	-0.0416709
108	0xbdddcf81	-0.10830594
109	0x3cc5e86c	0.024158679
110	0x3caee341	0.021348597
111	0xbe1480d5	-0.1450227
112	0x3caaee50	0.02086559
113	0x3d3dfd7b	0.046384316
114	0xbd83efd8	-0.06442231
115	0xbd556970	-0.052102506
116	0xbdf05e91	-0.11736787
117	0xbe18bfe8	-0.14916956
118	0xbe21b4e0	-0.15791655
119	0xbbff6b00	-0.007794738
120	0xbc47c71d	-0.012193468
121	0x3dd271f1	0.10275639
122	0xbd86a65b	-0.065746985
123	0x3d1ec228	0.03875938
124	0x3d1850c9	0.037186418
125	0xbdccadfa	-0.09994121
126	0x3e174541	0.14772512
127	0x3ba7f0e0	0.00512515
128	0xbe083f86	-0.13305482
129	0xbb8252ea	-0.0039771693
130	0x3c8b8bff	0.017034529
131	0x3b54e4b2	0.0032484946
132	0xbd803368	-0.06259805
133	0xbaabc1ea	-0.0013104056
134	0xbe02967c	-0.12752718
135	0x3e4c393a	0.19943705
136	0xbe17cf7a	-0.1482524
137	0x3d50db11	0.050990168
138	0x3de7ee13	0.11324706
139	0x3db951a0	0.09048772
140	0x3d9eff9b	0.077635966
141	0x3d1ce5c0	0.038305044
142	0x3e1a6ed1	0.15081336
143	0x3def7071	0.11691368
144	0x3e0aee92	0.1356757
145	0xbdaa96b6	-0.08329527
146	0x3cd1c650	0.025607258
147	0x3d7f64f2	0.06235213
148	0xbcf03aca	-0.029324908
149	0x3dcbaa3c	0.09944579
150	0x3e0460fc	0.12927622
151	0xbe104cfa	-0.14091864
152	0xbc70d708	-0.014699705
153	0xbc5aa209	-0.013344296
154	0x3cfa37eb	0.030544242
155	0x3e03dcb8	0.12877166
156	0xbc954cd2	-0.018225107
157	0xbda06529	-0.07831795
158	0xbd8b3a56	-0.06798236
159	0x3e378259	0.17920817
160	0xbdde2b79	-0.108481355
161	0xbd9e7b83	-0.07738402
162	0xbd94350c	-0.072366804
163	0xbda1647f	-0.07880496
164	0x3d0012ee	0.031268053
165	0xbcfbe3f9	-0.030748354
166	0x3df8d694	0.121503025
167	0x3e374ce1	0.1790042
168	0xbde33525	-0.11094121
169	0xbc6e4bb5	-0.014544417
170	0xbb78d81c	-0.0037970608
171	0x3ce06b3b	0.027394881
172	0xbda84f3d	-0.082182385
173	0x3c8d44af	0.017244665
174	0xbe0bed05	-0.13664635
175	0xbe0cdd0c	-0.13756198
176	0xbdb5c14e	-0.088747606
177	0xbd241ab2	-0.04006452
178	0x3dd952f8	0.10611528
179	0xbe11e59d	-0.14247747
180	0xbd817d3c	-0.06322715
181	0x3e359688	0.17733204
182	0xbdafd98c	-0.08586416
183	0x3dc9d3aa	0.09854825
184	0x3e3260ba	0.17419711
185	0x3ced7708	0.028987423
186	0x3df5bb3b	0.11998602
187	0xbe752617	-0.23940311
188	0xbd4ea9ec	-0.05045502
189	0x3c041d50	0.008063629
190	0x3dd05802	0.10173036
191	0xbd92c30a	-0.07166107
192	0xbcd5b123	-0.026085442
193	0xbd722892	-0.059120722
194	0x3d911aa1	0.07085157
195	0xbd84fe77	-0.06493848
196	0x3d35355e	0.044240348
197	0xbdf958b7	-0.12175124
198	0x3ddcc047	0.107788615
199	0x3e158f68	0.14605486
200	0xbd24669c	-0.04013692
201	0xbda01a98	-0.07817572
202	0x3e487c14	0.19578582
203	0x3d0a43ea	0.033756174
204	0x3d25643e	0.0403788
205	0x3dfcea3b	0.123493634
206	0x3e193ece	0.14965364
207	0xbda4d8a8	-0.080491364
208	0x3d8ad000	0.06777954
209	0xbd8a37d9	-0.06748933
210	0x3df766ed	0.120801784
211	0xbd5d8177	-0.054078545
212	0xbd1e3117	-0.038621034
213	0xbdb70045	-0.08935598
214	0x3d30230a	0.043002166
215	0xbce49479	-0.027902829
216	0x3d4ee416	0.05051049
217	0x3daff682	0.085919395
218	0x3bc8826c	0.006119063
219	0xbb243ec6	-0.002506183
220	0x3e0d951b	0.1382641
221	0xbb1ed800	-0.0024237633
222	0xbd5921a0	-0.053010583
223	0xbd6b1805	-0.057395954
224	0xbd87103d	-0.06594894
225	0x3dd73392	0.10507883
226	0x3dea58ff	0.11442756
227	0x3c27308d	0.0102044465
228	0xbdc215a5	-0.094767846
229	0x3dee2952	0.11628975
230	0xbd8ca783	-0.06867888
231	0x3c09333f	0.008374034
232	0xbd4143c9	-0.047183786
233	0xbde79395	-0.11307446
234	0x3e07aa85	0.13248642
235	0x3bfe2cc0	0.0077567995
236	0xbc8d814d	-0.01727357
237	0xbd7134bb	-0.05888818
238	0xbd2bef02	-0.041975982
239	0xbe2d5b87	-0.16929446
240	0xbe193100	-0.14960098
241	0x3c35ffc5	0.0111083435
242	0x3c7aae50	0.015300348
243	0xbda9c85c	-0.08290169
244	0xbd2a82fb	-0.04162882
245	0xbcb5bd1c	-0.022184901
246	0x3c525c2e	0.01283936
247	0xbb4748c0	-0.0030408353
248	0xbe0b772c	-0.13619679
249	0x3c6253df	0.013813942
250	0x3d6602bf	0.056154963
251	0x3d8968ec	0.067094654
252	0x3cf3965f	0.029734788
253	0xbe141b6f	-0.1446359
254	0xbddb78ad	-0.107163765
255	0x3d861d12	0.065485135

sequential_1/dense_3/MatMul f4 [8, 128]
0	0x3a2f18fb	0.00066794426
1	0xbe2d8294	-0.16944343
2	0x3d1bee11	0.038068835
3	0xbe86388d	-0.2621502
4	0xbe8a41b1	-0.27003244
5	0xbe8ebdfd	-0.27879325
6	0xbd796083	-0.060883056
7	0xbdb40f11	-0.08791936
8	0x3e36c492	0.17848423
9	0xbd2155aa	-0.039388336
10	0xbd271236	-0.04078885
11	0xbe471183	-0.19440274
12	0xbe3bcbb9	-0.18339433
13	0xbd91ffca	-0.07128866
14	0xbe65d125	-0.22443064
15	0xbe265def	-0.1624677
16	0x3e57f595	0.21089776
17	0xbd5fdf70	-0.054656446
18	0x3e4429e4	0.19156605
19	0x3e2bf3f8	0.16792285
20	0xbe569c76	-0.20958123
21	0x3dd0b420	0.10190606
22	0xbdda5ab6	-0.10661833
23	0x3c9a1658	0.018809482
24	0xbd9b8680	-0.07594013
25	0xbe6b0744	-0.2295199
26	0xbc8be0be	-0.017074939
27	0x3e2bf903	0.16794209
28	0x3d137549	0.036000524
29	0x3e7acabe	0.24491403
30	0xbdc81016	-0.09768693
31	0xbdc9ba6d	-0.09850011
32	0xbd9ee0c5	-0.07757715
33	0x3d98013b	0.0742211
34	0x3d663c30	0.056209743
35	0xbde062d2	-0.109563485
36	0x3e29fb00	0.16599655
37	0x3e3275bc	0.17427725
38	0xbb8a3551	-0.0042177816
39	0x3e6ed4bb	0.23323338
40	0x3e2b6882	0.16739085
41	0x3e646ed4	0.22307903
42	0x3cc5f641	0.024165275
43	0x3e481f58	0.19543207
44	0x3e71f3cc	0.23628157
45	0xbe609418	-0.21931493
46	0x3db84dba	0.089992
47	0xbe02de7e	-0.12780187
48	0x3c970fc6	0.018440139
49	0xbda586f8	-0.08082384
50	0xbe63e960	-0.22256994
51	0xbea9ec09	-0.33187893
52	0xbe5217e2	-0.20516923
53	0x3ce6e372	0.028184626
54	0xbeaa5e06	-0.3327486
55	0x3d4b2033	0.049591254
56	0xbe88b500	-0.26700592
57	0x3bfd3f16	0.0077284677
58	0xbd1a0240	-0.037599802
59	0x3cc4a44a	0.02400412
60	0xbe32d88b	-0.17465417
61	0x3c9d6524	0.019213267
62	0xbdba83d9	-0.09107179
63	0x3dce18d8	0.10063332
64	0xbc9069b8	-0.017628536
65	0x3dfb4ed8	0.122708976
66	0xbdeb6b83	-0.114951156
67	0x3daa6abd	0.0832114
68	0x3ea62f25	0.32457843
69	0xbe5c08fb	-0.21487801
70	0xbe592e35	-0.21209033
71	0xbd0a4b04	-0.033762947
72	0x3dc6850b	0.09693345
73	0x3e638a83	0.22220807
74	0x3d293da6	0.04131856
75	0x3cd626f2	0.026141617
76	0x3b92287f	0.004460394
77	0x3d86e774	0.06587115
78	0xbd5814bc	-0.05275415
79	0xbe3da10e	-0.18518469
80	0xbdf7c829	-0.120987244
81	0x3de6d74f	0.112715356
82	0xbddc6eb4	-0.107633024
83	0x3dcbd78e	0.09953223
84	0x3df15ec1	0.11785651
85	0x3e249c0d	0.16075154
86	0xbe54b31c	-0.2077145
87	0x3e050c46	0.12992963
88	0x3e0371dc	0.12836403
89	0x3e2f323b	0.17109005
90	0xbe8cc88a	-0.2749675
91	0x3e28714d	0.16449471
92	0xbb7ba410	-0.003839735
93	0x3c95e19b	0.018296054
94	0xbe485397	-0.19563137
95	0x3cb66263	0.022263711
96	0x3dceef2b	0.101042114
97	0x3e541a5a	0.20713177
98	0x3e20794e	0.15671274
99	0xbbbbdde5	-0.005733239
100	0x3e1e7453	0.15474062
101	0x3d065674	0.032797292
102	0x3e08afab	0.13348262
103	0xbe546ef9	-0.20745458
104	0x3e67d4b1	0.22639729
105	0x3ce5a4c4	0.028032668
106	0x3e1011c5	0.14069279
107	0x3e1d9b75	0.15391333
108	0xbb0987be	-0.002098545
109	0xbe039b02	-0.128521
110	0x3d7d343f	0.061817404
111	0xbe24c935	-0.1609238
112	0xbe2261de	-0.15857646
113	0xbe07ebd8	-0.13273561
114	0x3e090dd5	0.13384183
115	0xbdb88e3c	-0.09011504
116	0xbe7f13e2	-0.24909928
117	0x3c348ee2	0.011020394
118	0x3de0f7b8	0.109847486
119	0xbd02cd67	-0.03193417
120	0x3dd6bcde	0.10485242
121	0xbe3f20b0	-0.18664813
122	0x3e3f0f16	0.18658099
123	0x3e4afde7	0.19823419
124	0xbd3b1167	-0.045670893
125	0x3cf2f8f2	0.029659722
126	0xbdeeb71b	-0.11656018
127	0x3e4e020f	0.20117973
128	0x3e27ad4b	0.163747
129	0xbc29a98c	-0.0103553645
130	0x3dcdb05e	0.10043405
131	0xbe2b31fa	-0.16718283
132	0xbd34123f	-0.043962713
133	0xbd9cc72e	-0.07655178
134	0x3e2ef5da	0.17085972
135	0x3e7c9f5b	0.24670164
136	0xbe33f359	-0.17573299
137	0xbc376709	-0.011193999
138	0x3d6590f8	0.056046456
139	0x3e14e324	0.14539772
140	0x3e1004f2	0.14064386
141	0xbc07f1cd	-0.008297396
142	0x3dcf3603	0.10117724
143	0xbd476bae	-0.048686676
144	0xbe5351f3	-0.2063673
145	0xbe247699	-0.16060866
146	0xbe16d02f	-0.14727853
147	0xbe5f13e7	-0.21784936
148	0xbd321bde	-0.043483607
149	0x3d2c782a	0.042106785
150	0xbd8e052b	-0.069345795
151	0xbe1d1560	-0.15340185
152	0xbe6ac4e8	-0.22926676
153	0x3e3d587b	0.18490784
154	0xbe2e2e83	-0.1700993
155	0xbe29a0bb	-0.1656522
156	0xbe822016	-0.25415105
157	0xbe10692f	-0.14102624
158	0x3bb2fdd7	0.005462389
159	0x3dc56dfe	0.0964012
160	0x3dd89413	0.10575118
161	0x3e43a02c	0.1910407
162	0xbdcd9d48	-0.10039765
163	0xbe99b2ee	-0.30019325
164	0xbcffd2f4	-0.03122852
165	0xbe26ab20	-0.16276217
166	0x3ddca0db	0.10772868
167	0xbe7edfa2	-0.24889997
168	0x3d8726c6	0.06599192
169	0xbe4daddd	-0.20085855
170	0x3c182ee7	0.009288526
171	0xbcb7de2f	-0.022444813
172	0x3cebfac8	0.028806105
173	0x3e7b24e3	0.2452579
174	0xbc194044	-0.009353701
175	0x3cc7014f	0.024292616
176	0xbe2c4d39	-0.16826333
177	0xbe222d1d	-0.15837522
178	0xbe54fed6	-0.20800337
179	0x3ddcbc03	0.10778048
180	0x3da4dfd3	0.080505036
181	0xbdc7876a	-0.09742625
182	0x3e01fce2	0.12694123
183	0xbc1062d7	-0.008812628
184	0x3dc8a4af	0.09797036
185	0x3e657b52	0.22410324
186	0x3c9a2370	0.018815726
187	0xbdc5b33e	-0.09653328
188	0xbe1ef8f8	-0.15524662
189	0x3e658b0d	0.22416325
190	0x3e59bfae	0.21264526
191	0xbdb9248f	-0.09040176
192	0x3d17a6fa	0.037024476
193	0xbe97d6d7	-0.29656097
194	0x3d28d90d	0.04122262
195	0x3e3decfb	0.18547432
196	0x3dd844ec	0.10560021
197	0x3e1dc407	0.1540681
198	0xbd8fafcc	-0.070159525
199	0xbe5594c6	-0.20857534
200	0x3c4c1f1a	0.012458587
201	0xbd55134a	-0.05202035
202	0x3da8eadc	0.08247921
203	0x3b5eb4cb	0.0033982273
204	0xbe7837c5	-0.24240024
205	0x3e11aded	0.14226504
206	0x3dce3040	0.10067797
207	0x3db70908	0.089372694
208	0x3da50d38	0.08059162
209	0x3d887e1c	0.066646785
210	0x3e112c9d	0.14177175
211	0xbe81ce05	-0.25352493
212	0x3e5db01f	0.21649216
213	0xbe44b1a2	-0.19208387
214	0x3df33f10	0.118772626
215	0xbbcbce53	-0.006219664
216	0xbd396662	-0.045263655
217	0xbe84d65a	-0.25944787
218	0xbdec9e31	-0.1155361
219	0xbddf144f	-0.108925454
220	0x3d68091f	0.056649324
221	0x3e4e7e1e	0.20165297
222	0xbe06a30b	-0.13148133
223	0xbdd3e6ac	-0.103467315
224	0xbdc28f43	-0.09499981
225	0xbd2dee5a	-0.042463638
226	0x3cb07126	0.021538328
227	0xbe83e5f3	-0.25761375
228	0x3e301703	0.17196278
229	0x3e213b07	0.15745173
230	0x3dc2464c	0.09486064
231	0xbe3b4013	-0.18286161
232	0xbe8f422a	-0.27980167
233	0xbe93777e	-0.28802103
234	0xbde84e4f	-0.11343061
235	0xbd83e0b1	-0.06439341
236	0x3d6415c0	0.055684805
237	0x3e3d9ed5	0.18517621
238	0x3e821aad	0.25410977
239	0xbd9e26c1	-0.077222355
240	0xbe7b3fc0	-0.24536037
241	0xbdf80f92	-0.12112345
242	0xbe47b760	-0.19503546
243	0x3cacf1c7	0.021111382
244	0x3d12c79e	0.0358349
245	0x3de882a6	0.11353044
246	0x3cf8adaa	0.030356247
247	0x3e37dd04	0.17955405
248	0x3c94e4aa	0.018175442
249	0x3c76121d	0.015018967
250	0xbe36b1fd	-0.17841335
251	0xbcf1d444	-0.029520161
252	0x3c024139	0.007950121
253	0xbe16da21	-0.14731647
254	0xbe067bf7	-0.13133226
255	0xbd91879a	-0.07105942
